best_model.pth (torch, 90229 bytes, 42 tensors)

conv1.weight f4 [8, 1, 3, 3]
000000 5b de 35 3e 7e 68 1c be a3 81 b2 bd 33 11 e6 3d
       0.17760603 -0.15274236 -0.087161325 0.11233749
000010 f9 05 b7 be 69 0e 56 3e 95 6c f4 bd 93 04 99 3d
       -0.35746744 0.20903935 -0.11934773 0.074715756
000020 b2 3f 94 3d f8 71 2f bd 92 2b 17 3e 79 f6 34 3d
       0.072387114 -0.0428333 0.14762715 0.044180367
000030 53 06 33 3e 11 d1 86 bd fc 1c 63 bd a8 30 e4 bc
       0.17482881 -0.06582845 -0.055447564 -0.027855232
000040 69 8c e9 3b 16 fe 93 bd d1 b9 9d 3e 2b 75 ea 3d
       0.007127334 -0.072261974 0.3080583 0.11448129
000050 4f 39 01 be 0a da 73 be 8a 1c 8a bd c2 e6 0a be
       -0.12619518 -0.23813644 -0.06743725 -0.1356459
000060 4a 3d a9 bd 5a fe b7 3c eb 40 3d 3e 56 45 43 3e
       -0.08263643 0.022460151 0.18481795 0.19069418
000070 91 50 66 be 20 af 71 3e d2 82 d1 3d bb 51 a1 3e
       -0.22491671 0.23601961 0.1023003 0.31507668
000080 64 57 12 3e 51 05 9c be c4 70 b2 be 6d f1 97 be
       0.1429115 -0.30472806 -0.34851658 -0.2967638
000090 0a 2f 2f 3e a3 39 eb 3b c0 67 29 3e ef 0d 01 be
       0.17107788 0.0071785017 0.16543484 -0.12602971
0000a0 ab a2 b2 3e 35 b8 26 be 23 eb 91 3e 7f d6 dc 3a
       0.3488973 -0.16281207 0.28499708 0.0016848593
0000b0 7e 4b 53 be 67 5c 70 3e 7d 11 9a bd c9 a1 b0 3a
       -0.20634267 0.23472749 -0.07522867 0.001347595
0000c0 fc ed a7 bc bd df 55 be 12 26 38 be 99 eb aa be
       -0.020499222 -0.2088613 -0.17983273 -0.33382872
0000d0 45 8e 81 3d 74 8e a7 3d 9d 7a 9d 3e 43 72 16 3e
       0.06325964 0.08181468 0.3075761 0.14692025
0000e0 21 5d cd bd 00 84 60 be ad e6 66 3e fe 3f 2c 3e
       -0.100275286 -0.21925354 0.22548933 0.16821286
0000f0 88 e4 8c be 34 e8 23 3e 23 93 7f 3e e9 08 a5 3e
       -0.27518106 0.16006547 0.24958472 0.3223336
000100 74 21 17 be 77 b3 04 be 05 d2 2a 3e bb 2b ce 3d
       -0.14758855 -0.12959085 0.16681679 0.10066935
000110 63 84 9b be 51 08 94 bd 8a 0f 63 3d b5 53 81 be
       -0.3037444 -0.07228149 0.05543474 -0.25259176

conv1.bias f4 [8]
000000 04 c0 b5 38 52 75 e1 35 4a 06 c8 b7 e9 23 1d b8
       8.666518e-05 1.6797951e-06 -2.3844786e-05 -3.746516e-05
000010 f0 21 fb 35 2d f2 0c 37 f4 17 ac b6 9f 34 81 37
       1.8710834e-06 8.401036e-06 -5.128788e-06 1.5402502e-05

bn1.weight f4 [8]
000000 69 16 71 3f 22 1b 6d 3f b9 bb 60 3f e8 f8 88 3f
       0.9417482 0.92619526 0.8778644 1.070096
000010 57 fc 60 3f 25 3c 8f 3f 9d d6 7d 3f 81 a3 84 3f
       0.8788504 1.119023 0.991556 1.0362397

bn1.bias f4 [8]
000000 20 18 f8 3b b1 79 06 be c5 6c 75 3d 58 0f 79 3d
       0.0075712353 -0.13132359 0.059918184 0.06080565
000010 1a 25 64 3c ec 96 bf 3d 17 8e 89 bc 73 4b 25 3e
       0.013924861 0.09354958 -0.016791387 0.16142063

bn1.running_mean f4 [8]
000000 e6 0d a7 3b 5c 70 9e 3a 0f a5 9d 3b b2 1d 26 bc
       0.0050980924 0.0012087929 0.0048109363 -0.010138916
000010 6a 37 02 3c 50 2e 6b bb 16 1a 14 3c 96 ce ef bb
       0.007947782 -0.0035885759 0.0090394225 -0.007318328

bn1.running_var f4 [8]
000000 41 de 7c 3d 14 c2 18 3d 14 83 88 3d ec 23 89 3e
       0.061735395 0.037294462 0.06665626 0.2678522
000010 e0 93 8e 3e 42 8e 6f 3e 26 6b cc 3e 25 39 9c 3e
       0.27847195 0.23394111 0.39925498 0.30512348

conv2.weight f4 [8, 8, 3, 3]
000000 05 aa ed bd a4 7b 87 bd 39 54 e4 3c e7 f4 91 bb
       -0.11604694 -0.066153795 0.027872192 -0.0044542435
000010 3f 3a a6 bc 27 b0 48 3c 19 8c 66 bd 87 ab ec 3d
       -0.020291446 0.012249029 -0.05628595 0.11556154
000020 86 90 41 3d 52 7a 5c 3d 86 9e 7c bc 1e 49 77 bd
       0.04725697 0.05382759 -0.015418654 -0.060372464
000030 4a 85 3d bd 6b ac 60 bc fd 64 27 bd 31 5f ed bd
       -0.046269692 -0.013712983 -0.040867794 -0.11590422
000040 3a f7 e9 bc ef 52 2b 3d 7f 2b bb bd c7 b2 de bd
       -0.02856027 0.04182714 -0.091391556 -0.10873943
000050 96 14 8b 3b 85 ee 30 bd c2 51 b9 ba c0 48 1d bd
       0.0042443974 -0.04319622 -0.0014138746 -0.038399458
000060 ac 92 0c bd bf 3d 97 bc 5f 6d 6c 3d f8 26 40 3d
       -0.034319565 -0.01846206 0.057721492 0.046912163
000070 1c 17 95 3d 08 cc d5 3d 0a 96 43 3e ce ba 80 3e
       0.072797984 0.104393065 0.19100204 0.2514252
000080 bc 68 80 3e 97 1d b3 3d 3f 67 17 3e a5 85 1a 3e
       0.25079906 0.08745878 0.14785479 0.15090044
000090 86 b4 48 3d b0 50 0d 3d 90 b0 13 bd fa 5c 09 be
       0.049000286 0.034500778 -0.036057055 -0.13414374
0000a0 2c 8e cb bd a1 8c 86 3d 6c 25 99 3c 4a 11 c1 bd
       -0.099392265 0.065697916 0.018694602 -0.09427126
0000b0 90 f5 08 3d 2d 34 87 bd e3 12 97 bd 36 7f 92 bd
       0.03343731 -0.066017486 -0.07376649 -0.0715317
0000c0 0e 44 aa 3d d9 12 cb 3d 8b df 74 bd f3 43 45 bd
       0.08313762 0.09915704 -0.0597835 -0.048160505
0000d0 a4 94 0d 3e 66 98 26 3c ef 1c d9 3d d4 98 93 3d
       0.13826233 0.010168171 0.10601222 0.07206884
0000e0 2d 9b be 3d ae 40 a8 3d d2 9b 04 bd f8 40 95 bd
       0.09306941 0.08215462 -0.032375164 -0.072877824
0000f0 49 a6 05 bd ef 6d 05 3d 81 35 91 bd f2 ee 51 3c
       -0.032629285 0.032575544 -0.07090283 0.012813317
000100 b3 c0 d2 3c 4c df 2b be 2b 67 13 3d cd 40 be bc
       0.025726652 -0.167844 0.03598706 -0.023224259
000110 82 2d 8b 3b b6 0d fb bd 71 d8 13 be 18 5d 28 3d
       0.0042473683 -0.122584745 -0.14438035 0.041104406
000120 1b 65 c9 bd cb cf de bd 6c 60 a3 bd b9 48 16 be
       -0.098337375 -0.10879477 -0.079773754 -0.14676179
000130 ca 53 0e be 51 74 25 bc 84 cf 3f bb 1c b2 38 3c
       -0.1389915 -0.010098533 -0.0029267976 0.011272933
000140 7c 79 76 3c d2 d6 bb 3d 62 9a 8c bc c9 a2 7c bd
       0.015043613 0.09171833 -0.01716346 -0.06167868
000150 5b 98 af 3b 23 eb 6d bc 0e 75 b0 bd fb 46 a2 3c
       0.0053587384 -0.014521393 -0.086160764 0.019809237
000160 97 4f bc bd 30 5e 2c bd 46 5b 51 bd f7 29 18 3d
       -0.09194868 -0.04208201 -0.051112436 0.037149396
000170 9f 67 60 3b 3d 19 35 3a e5 bc 9f 3d 1e 33 1d 3d
       0.003424145 0.0006908363 0.07799701 0.038378827
000180 cf 99 0e 3e 9b 64 9d 3d 11 bc dc 3d 26 8d b7 3d
       0.13925861 0.076852046 0.10778058 0.08962469
000190 a1 21 e5 bd 38 d2 e6 bd ba 44 b1 bc aa ef 3a bd
       -0.11188055 -0.11270565 -0.021639217 -0.045638718
0001a0 94 9d 59 be b7 2d 14 3e 82 52 a3 bd 28 5a 5a be
       -0.21251518 0.14470564 -0.079747215 -0.21323454
0001b0 58 87 87 3b ba 00 dd bd fd c7 19 3c 74 da 05 bd
       0.0041360073 -0.10791154 0.00938606 -0.032679036
0001c0 9e fb 9d bd 67 66 49 3d 86 77 e5 3c 21 c0 ba bd
       -0.07714008 0.049169924 0.028011095 -0.09118677
0001d0 02 6f b2 3d 1a dd 00 3e f2 d0 85 3d 19 e5 d2 bd
       0.08712579 0.12584344 0.06533994 -0.10297603
0001e0 cc f4 5f 3d 96 78 23 be 47 36 47 bd 81 26 d2 3c
       0.054676816 -0.15963969 -0.048635747 0.025653126
0001f0 27 17 b8 3c 78 6c aa 3b 8b 3f a5 bb 18 cd b3 3c
       0.022471977 0.0052009188 -0.0050429753 0.021948382
000200 2d c1 a6 3c fa 64 e9 3d 89 80 52 3d a7 42 a4 3d
       0.020355785 0.11396213 0.051392112 0.080205254
000210 8b 6e 8b bd e6 6d 9c 3d 40 3d 00 3e 00 e7 17 3d
       -0.06808194 0.07638149 0.12523365 0.037085533
000220 a2 d8 a1 3d fb ab 86 bd c7 cf ea bd 54 73 9d bd
       0.079026476 -0.065757714 -0.11465412 -0.07688013
000230 d7 20 bd 3c 09 9a f7 bb 03 16 2e be 74 57 f6 3d
       0.023086948 -0.007556204 -0.17000584 0.12028399
000240 1c 90 b5 3d 89 74 70 3d aa a5 e9 3c d0 78 eb 3c
       0.08865377 0.058704887 0.028521378 0.028744131
000250 0e 16 ab 3d 5c 1e f8 3d b8 21 9c bd c3 c5 5e bd
       0.08353816 0.121151656 -0.07623619 -0.05438782
000260 5f 74 09 3e da d9 1c bc 1c 4a 7b bc ef ec 93 3d
       0.13423298 -0.009573424 -0.015337493 0.07222926
000270 fb c7 c6 bd ee 16 42 3d 30 89 a4 3d 43 99 16 be
       -0.09706112 0.04738515 0.08033979 -0.14706902
000280 e3 e7 25 be a3 09 66 bd 46 f2 90 3d e5 a7 5c 3d
       -0.16201739 -0.056161534 0.0707746 0.053871054
000290 8e 8d a9 bd 55 78 73 bd a5 78 0f bd d8 02 0d bd
       -0.082789525 -0.05944093 -0.035027165 -0.03442654
0002a0 03 e0 83 bd 1c 82 83 3d 35 3b 5c 3d 54 34 d3 bd
       -0.06439211 0.06421301 0.0537674 -0.10312715
0002b0 ec 87 8b bd 6d 1b 05 3c f3 1a 9d bd a7 24 25 be
       -0.068130344 0.008124215 -0.07671156 -0.16127263
0002c0 2b a0 79 3d 3a 73 99 3c 8b 53 04 bd 02 be 9b bd
       0.060943764 0.018731702 -0.032306235 -0.076046005
0002d0 50 32 d2 3d 98 4c da 3d 9c aa 38 bc 2d 25 6c 3d
       0.102635026 0.1065914 -0.011271145 0.05765264
0002e0 62 65 06 3c 48 35 65 bd d8 14 3e bd 77 9d fa bd
       0.0082028825 -0.055959016 -0.046406597 -0.12237065
0002f0 98 38 5a 3d 68 d5 89 be c2 a9 19 be 23 dc 1c bd
       0.05327663 -0.2692063 -0.15006164 -0.038295876
000300 66 06 1f be aa 01 fa 3c 16 50 dc bd 94 d1 08 be
       -0.15529785 0.030518372 -0.10757463 -0.13361198
000310 06 6b 22 be 1a f3 1c be 45 66 1c bd e5 a0 89 bc
       -0.15861139 -0.15327111 -0.03818347 -0.016800353
000320 cd 10 c7 bd 87 8d ac 3d 2f de ff 3d 5a e6 df bc
       -0.09720001 0.08425432 0.1249355 -0.02733152
000330 80 2e 9d ba 56 2f 5f bc 70 b8 0c be d2 69 00 3e
       -0.0011992007 -0.013622126 -0.13742232 0.12540367
000340 e9 50 dc bb 5e 6d 14 3d 40 2f be 3d 80 33 62 bd
       -0.0067235124 0.036237113 0.09286356 -0.055224895
000350 cc 0e 84 3d f8 72 f7 3d 0f e6 6d bd 29 c2 d0 bd
       0.06448135 0.120824754 -0.05808073 -0.10193283
000360 26 73 ec bc 17 75 37 bb 58 5c 25 bc 11 63 e5 bc
       -0.0288635 -0.0027993375 -0.010092817 -0.02800134
000370 61 60 cb bd 6b b7 07 bd b8 dc 87 bd 0e 29 81 bd
       -0.09930492 -0.033133905 -0.06633896 -0.06306659
000380 fa f9 4c bd e0 01 54 3a fa 02 d2 bd 98 a5 1f 3d
       -0.050043084 0.00080874376 -0.10254474 0.038976282
000390 aa 3c 75 3d d2 36 c0 3d ce 9e ce bd bd 09 22 3c
       0.059872307 0.09385456 -0.10088883 0.009890017
0003a0 b6 65 95 bd 04 5b d9 bd f4 dc a4 3d 27 ef 9f 3d
       -0.072947904 -0.10613063 0.08049956 0.078092866
0003b0 57 44 d7 3c 4f 25 d7 3d 39 41 70 3d f4 16 84 3d
       0.026277704 0.10505163 0.05865595 0.064496905
0003c0 63 82 3d 3d 84 dc 2e bc 33 b2 9f 3d 99 48 43 bd
       0.046266925 -0.010672692 0.07797661 -0.047676656
0003d0 c1 1f 41 3d 16 af dd 3c cf d1 50 bd 56 e1 a7 3d
       0.047149424 0.027061027 -0.05098134 0.08197276
0003e0 8c 4e 38 3d 15 55 3c 3c 98 68 d4 3d d7 7a 4e 3d
       0.044996783 0.0114948945 0.10371512 0.050410118
0003f0 db 36 a5 3d 36 c3 a4 bd 46 15 84 bd ea a4 2f 3d
       0.080671035 -0.08045046 -0.0644937 0.042881884

conv2.bias f4 [8]
000000 bd 47 f1 36 f6 a2 08 b6 e3 6c 9d 37 92 2a fa 37
       7.190711e-06 -2.0360435e-06 1.8766563e-05 2.9822146e-05
000010 7c 68 52 34 47 bc 5d b6 ac c4 87 37 f2 3e 24 37
       1.9595785e-07 -3.3041158e-06 1.6184837e-05 9.789817e-06

bn2.weight f4 [8]
000000 e6 c0 7f 3f 2c 5c 66 3f 90 16 82 3f ec ce 81 3f
       0.99903715 0.89984393 1.0163136 1.0141273
000010 ea b5 66 3f 0b 99 6c 3f 7a 75 82 3f 55 75 6b 3f
       0.9012133 0.92421025 1.0192101 0.9197591

bn2.bias f4 [8]
000000 b9 1c 0f be 41 35 01 be c3 b9 e5 bd 58 4b 07 be
       -0.139758 -0.12617971 -0.11217072 -0.13212335
000010 9a 32 9e bd 12 ff 9a bd 94 89 d8 bd c6 1f 9b be
       -0.07724495 -0.07568182 -0.10573116 -0.3029768

bn2.running_mean f4 [8]
000000 be ca 39 3e c4 f2 83 be ee 27 0a bf de ee 10 bf
       0.18143746 -0.25771153 -0.5396718 -0.5661448
000010 f2 3d fe 3e 72 e4 5e be 03 a3 18 be eb 59 5b be
       0.49656636 -0.21766832 -0.14905934 -0.2142102

bn2.running_var f4 [8]
000000 93 2c 9d 3e 61 fd 55 3e f2 3a c9 3d cb 4c bc 3d
       0.3069807 0.20897438 0.09825696 0.091943346
000010 0f f4 97 3e 30 f6 39 3e b2 9b 10 3e 5d 2f e3 3d
       0.2967839 0.1816032 0.14121893 0.11093018

conv3.weight f4 [16, 8, 3, 3]
000000 da 0e 8e 3d 66 62 91 bd 41 d0 93 3d 00 67 3b be
       0.069364265 -0.07098846 0.07217456 -0.1830101
000010 6c 45 bb bd 34 19 1a bd 32 cb e3 ba 3f 9f e7 3b
       -0.091441005 -0.03762169 -0.0017379283 0.007068544
000020 18 14 4a bd 9d 6f f2 3c c6 04 20 bc 6f 9e 9c 3b
       -0.04933557 0.029594237 -0.009766763 0.004779629
000030 9c be cf 3c eb 0f 9d bc 12 02 32 3d 8f d9 c2 bc
       0.025359444 -0.01917263 0.043459006 -0.02378538
000040 20 78 8a 3d bd 55 30 3e 9e 4c 08 be a2 86 af bd
       0.06761193 0.17220207 -0.13310477 -0.08570601
000050 dd 1b ec bd ee 70 ef bd 31 71 48 bd 8f 5a dc bd
       -0.11528752 -0.116914615 -0.048936073 -0.1075946
000060 c3 f3 f2 bd 76 59 8e bd 9e 85 da 3c 25 67 dc bb
       -0.118629 -0.06950657 0.026675042 -0.006726163
000070 e3 6f e4 3c 25 71 be 3b 09 73 4a bd 75 f3 cd bc
       0.027885383 0.0058118277 -0.049426112 -0.025140503
000080 4c 74 08 3e 79 23 cd bc 23 36 9a 3d b4 2f 24 3e
       0.13325614 -0.025041329 0.07529857 0.16033822
000090 4b 67 3e be c4 d5 4f be 18 66 fe bd 4b 49 9e bd
       -0.1859409 -0.20296389 -0.124218166 -0.07728823
0000a0 12 13 05 bd f7 a0 7b bd 66 c1 2d 3d 40 c9 7d 3d
       -0.03248889 -0.061432805 0.042420767 0.061959505
0000b0 67 b3 d9 bc a6 f0 98 bd 21 78 cf bd b6 36 13 be
       -0.026574804 -0.07467775 -0.10130335 -0.1437634
0000c0 3a 79 8d 3d 68 12 18 3d 79 17 49 bd 63 aa b4 3c
       0.06907888 0.03712693 -0.04909465 0.022053903
0000d0 ed a8 4f 3c 2b ab 09 bd 99 a3 7b bd cf 2f f2 bd
       0.012674552 -0.033610504 -0.061435316 -0.11825525
0000e0 40 f5 26 3d ee 64 8e bd 77 c8 06 be c2 80 e7 bd
       0.040761232 -0.069528446 -0.13162409 -0.113038555
0000f0 d0 78 02 bd e5 3e d4 3c 16 05 3d 3a dc 20 b7 bc
       -0.031853497 0.025908897 0.00072105357 -0.022354536
000100 69 38 1a 3d b4 33 05 be 23 b1 bc 3d 89 58 15 3e
       0.037651453 -0.13008004 0.09213474 0.14584555
000110 e9 aa ab 3c f1 3a 20 3d 4a 9b dc 3d 0c 91 a8 3d
       0.02095552 0.03911871 0.107718065 0.082307905
000120 36 c9 3b bd 91 a8 3f be 12 07 de bd ec 86 a8 bd
       -0.045846187 -0.18716647 -0.10841192 -0.08228859
000130 cb 37 45 be 79 4f 3c be 90 74 95 3c a0 ed d5 3c
       -0.19259565 -0.18389691 0.018244058 0.026114285
000140 26 92 50 bd b0 12 84 3d fd c8 a9 3d e2 ce bd 3c
       -0.050920628 0.06448877 0.082902886 0.023169938
000150 3b 51 48 3c 7f 08 16 3d 6e ee a4 3d 58 95 12 3b
       0.012226398 0.036629196 0.08053289 0.0022366848
000160 e9 9b d4 3d 32 51 c7 bb 2e 2b a9 3c de 09 e2 3d
       0.103813 -0.0060826773 0.020650472 0.11037038
000170 c2 98 68 3d e5 f8 fa 3c d9 43 0d bc 91 7b 0f 3d
       0.056786306 0.03063626 -0.008622133 0.03502995
000180 28 d4 22 be 59 32 95 bd e8 7b f2 3d ca 6c df bd
       -0.15901244 -0.07284994 0.118400395 -0.10909422
000190 aa 82 6a bd 0c 59 18 bc c2 08 59 bd 72 22 fd bc
       -0.057253517 -0.009298574 -0.052986868 -0.030900214
0001a0 2a 3f 1a bd df c5 68 bc 72 fc ca bd d8 99 8f 3c
       -0.037657894 -0.014207332 -0.09911431 0.017529413
0001b0 23 83 56 bd 11 83 88 3d a1 4a 03 3e 23 1f c2 bd
       -0.052371155 0.06665624 0.12821437 -0.09478595
0001c0 e9 58 60 bc cd 18 31 3d 6b bb e4 bd f4 eb d2 bd
       -0.013693073 0.043236542 -0.1116856 -0.10298911
0001d0 71 e7 eb 3c f0 d9 75 bc 48 40 f1 bd 82 51 00 bd
       0.028796883 -0.015005574 -0.11779839 -0.031327732
0001e0 7a d3 63 bd ce 0c 14 be d8 e4 e3 bc 62 8a 96 bd
       -0.0556216 -0.1445801 -0.027819082 -0.07350613
0001f0 e3 af 6c bc 63 7e af 3d 6e 1f b4 bc d3 88 cd bd
       -0.014446232 0.08569028 -0.021987643 -0.10035863
000200 29 b9 24 be 4f b6 88 3d 2c 3c 23 3a 80 30 4c be
       -0.16086258 0.066753976 0.0006226923 -0.19940376
000210 10 6e ae 3d cb 7f 05 3d 46 c5 bd 3c b3 c5 a3 bd
       0.085170865 0.032592576 0.023165356 -0.079966925
000220 d4 67 c0 39 b0 79 00 3e 61 ed a9 bc 55 80 e1 3c
       0.00036698452 0.1254642 -0.020743074 0.027527014
000230 a8 95 77 3d 82 8e dd bd c6 64 60 bd a6 cd 00 3e
       0.060445458 -0.10818197 -0.054783605 0.12578449
000240 ef e6 b7 bc c9 af 0b bb 61 7b a2 bc 03 57 1a bd
       -0.022448985 -0.0021314493 -0.019834222 -0.037680637
000250 f9 53 f0 3b e0 21 03 bd f3 dd 8d 3c 37 77 62 3d
       0.007334229 -0.032014728 0.017317748 0.055289473
000260 3e 41 35 bc f2 b3 1c 3d ee 9f d3 bc ac 9f f1 bc
       -0.011062918 0.038257547 -0.025833096 -0.029495083
000270 a4 d5 e6 bd ea 22 cb bd eb a8 18 be e7 62 0b 3d
       -0.112712175 -0.09918769 -0.14908187 0.034029868
000280 4d e8 b5 3c 0c 9d ae 3c df 16 a6 bc ae 6c aa bd
       0.022205496 0.02131512 -0.020274578 -0.0832151
000290 c8 ad ef bd a9 c3 86 bd d6 c3 d8 bd 5b 78 3a bd
       -0.11703068 -0.06580288 -0.10584228 -0.045524936
0002a0 8b 6a 44 bd 14 67 f5 bd 94 e2 dc 3d be 2f 1b bd
       -0.04795317 -0.11982551 0.10785404 -0.037887327
0002b0 ae b7 50 bd 3d 76 e5 bd 91 1c 1f bd 78 79 e5 bc
       -0.05095642 -0.11204193 -0.038845602 -0.028012022
0002c0 ca 93 cf ba 90 55 ae bd 39 0c 5e bd 69 a4 b7 3d
       -0.0015836891 -0.085124135 -0.054210875 0.089669056
0002d0 78 6d 2c 3d 9c ca 51 3d 4c 51 a6 3c e2 6b 14 3c
       0.042096585 0.051218614 0.020302437 0.009058924
0002e0 76 ab 5e 3d 83 f6 94 3a 63 54 20 be 0b de cf bd
       0.054362737 0.001136497 -0.15657191 -0.10149773
0002f0 53 20 8c be d6 65 cb bd 9d f0 88 bd c7 68 25 bc
       -0.2736841 -0.09931533 -0.06686518 -0.010095782
000300 d8 a9 2c be 04 05 72 bd 9c 68 70 bd 69 54 52 be
       -0.16861665 -0.059086815 -0.058693513 -0.20540012
000310 ea a4 26 3c b5 35 0d be 5a 51 96 bd bb e1 6d bc
       0.0101711545 -0.13790019 -0.07339735 -0.01451915
000320 44 1f 29 be 94 1d 6f 3d 94 be 57 bd f0 3d d1 bd
       -0.16515833 0.058377817 -0.052671984 -0.10216892
000330 55 9f 3a 3d dd 9e 60 3d fb a2 c2 bd 10 cd f5 3c
       0.045562107 0.054839004 -0.09503742 0.030005008
000340 95 80 eb 3c ca e3 e2 3d fd 26 7d bd c2 7f 10 bd
       0.028747836 0.110786036 -0.06180476 -0.03527809
000350 36 21 fc bd 21 0f cd bd 8e 86 9d bd 3d 65 b3 bd
       -0.12311022 -0.10012651 -0.0769168 -0.08759544
000360 77 ce 37 be 38 42 42 be 3c 46 80 bd e4 0a b8 3c
       -0.17949854 -0.18970573 -0.06263396 0.02246613
000370 8a 25 75 3d dd 2e a5 bb 6f 01 38 3e 3f 81 1d 3e
       0.059850253 -0.005040987 0.17969297 0.15381335
000380 54 45 b9 3d a8 59 14 bd b2 ce b0 bd 4e 22 36 bb
       0.090464264 -0.036218315 -0.08633174 -0.0027791443
000390 c5 85 4a 3c e7 57 97 bd a7 63 c0 bc 81 10 1f 3c
       0.012360995 -0.07389813 -0.023485018 0.009708525
0003a0 c5 70 79 bd 03 42 8d 3d 93 1f fa 3c 72 0f 4a 3d
       -0.06089856 0.06897356 0.030532634 0.049331136
0003b0 1e 84 ed 39 3c a4 7a 3c b1 bb 26 bc 15 c5 89 bd
       0.00045302598 0.015297946 -0.010176585 -0.067270435
0003c0 13 15 7d 3d 7f ca d7 bd 1e d1 e2 bd 02 03 40 bd
       0.061787676 -0.1053667 -0.11075042 -0.04687787
0003d0 35 b4 19 be 9b 6b aa 3c 4a 32 2a 3d 21 c6 f1 3c
       -0.1501015 0.020803263 0.041551866 0.02951342
0003e0 95 3f 0b 3e da 1a 47 3e 95 b0 64 3d 01 c0 ef 3d
       0.13598473 0.19443837 0.055832464 0.11706544
0003f0 d3 d5 64 3d 45 16 10 bb 5a 9a bf bd 88 78 03 3c
       0.05586798 -0.002198593 -0.09355612 0.008024342

conv3.bias f4 [16]
000000 3b 50 9f 36 c6 16 21 b5 0c 89 b9 b3 5e 4c 91 b5
       4.7479093e-06 -6.0010314e-07 -8.6396625e-08 -1.0825568e-06
000010 7e 69 41 36 57 45 32 37 90 56 c0 b6 eb 5a b6 35
       2.8820646e-06 1.0625771e-05 -5.732123e-06 1.3586517e-06
000020 3a c8 9e 35 b9 b2 a0 b6 8a a7 4c b5 66 dc 15 b6
       1.1830191e-06 -4.7891776e-06 -7.6239724e-07 -2.233102e-06
000030 9a 1a 4e 36 14 68 db b4 ad fa 34 b5 9c 21 eb 36
       3.0711876e-06 -4.0867656e-07 -6.7420007e-07 7.0074584e-06

bn3.weight f4 [16]
000000 e4 ca 80 3f c0 19 80 3f d8 e0 85 3f 96 72 61 3f
       1.0061917 1.0007858 1.0459242 0.8806547
000010 31 ae 92 3f 20 00 72 3f d1 d3 6d 3f e6 7a 73 3f
       1.1459409 0.9453144 0.9290133 0.95109403
000020 f8 34 5f 3f 95 f9 85 3f e6 d8 70 3f eb 3f 7e 3f
       0.871902 1.0466791 0.9408096 0.9931628
000030 f7 de 78 3f 57 c5 5c 3f 49 e8 88 3f 84 2e 61 3f
       0.9721522 0.86238617 1.0695888 0.879616

bn3.bias f4 [16]
000000 f1 4a f9 bb 07 d7 a2 bd 37 6d db 3c d9 17 ff 3c
       -0.0076078107 -0.079511695 0.026785476 0.031139301
000010 2f 25 20 3d 46 3e f1 bc ab 53 b4 bd 10 af 9f bd
       0.03909796 -0.02944864 -0.08805021 -0.077970624
000020 4b 58 1a be b4 f5 35 bc 95 4f 92 3d a4 5b 22 3c
       -0.15072744 -0.0111059435 0.07144085 0.009909544
000030 91 ae 07 be 98 cd f3 bd c1 85 9a 3c 6b 92 21 bd
       -0.13250186 -0.11904448 0.018862607 -0.039446276

bn3.running_mean f4 [16]
000000 25 bc 19 bf 69 f1 19 bf e2 6c 9b bf fc 51 d3 3e
       -0.6005271 -0.6013399 -1.2142603 0.41273487
000010 1a ef 17 bf 8e d1 9d be 4e f1 d5 bc fb 45 32 3f
       -0.59349215 -0.3082394 -0.02611604 0.6963803
000020 c0 45 80 3d 69 e9 d7 be d7 94 29 bf f2 74 23 bf
       0.06263304 -0.42170265 -0.66242737 -0.6385032
000030 6c a2 4c bd 88 77 be 3e 2c d0 f0 be d2 10 60 3d
       -0.049959585 0.3720057 -0.47033823 0.05470354

bn3.running_var f4 [16]
000000 e1 97 95 3f 93 25 98 3f 71 38 b0 3f 56 8b b6 3f
       1.1686975 1.1886467 1.3767225 1.4261272
000010 92 9c 9d 3f 1c 88 49 3f 0a 2b 78 3f cc 83 84 3f
       1.2313406 0.7872331 0.9694067 1.0352721
000020 d2 e9 45 3f 1f 8d 8f 3f ad ec 72 3f d7 dc bf 3f
       0.77309906 1.1214942 0.9489239 1.498927
000030 e3 ed 15 3f 24 a5 4d 3f 30 bb 91 3f b8 a3 2b 3f
       0.5856611 0.8033011 1.138525 0.6704669

conv4.weight f4 [16, 16, 3, 3]
000000 3a 6b 94 3d d7 76 9a 3a f0 da 74 be bd 8c c9 3d
       0.07247014 0.0011784685 -0.23911643 0.09841297
000010 21 8d 80 3b 89 02 10 bd 3f fe 46 3b 44 10 88 bd
       0.003923074 -0.035158668 0.0030363945 -0.066437274
000020 5a be fe bc d7 df 73 be f5 cf 2a be fa 5b e5 bd
       -0.031096626 -0.23815857 -0.16680892 -0.11199184
000030 b5 3a 5c bd 90 a8 40 bd 09 7a 10 be 14 1d 0b 3a
       -0.053766925 -0.047035754 -0.14109053 0.0005306762
000040 5f ff db bb e0 37 5b bd 7d 94 e7 3d a6 72 90 3c
       -0.006713792 -0.053520083 0.11307619 0.017632794
000050 44 26 0f 3e 61 60 bf bb f0 6f bf bd 27 53 36 3b
       0.13979441 -0.0058403467 -0.09347522 0.0027820559
000060 0e ee 1a bc c2 ad dc bd 69 ee 65 bd 42 7e 4d 3d
       -0.009456171 -0.10775329 -0.05613557 0.050169237
000070 0d 10 c4 3c 8a e8 2b 3d 02 4c bc bd 8c fc 93 bd
       0.023933435 0.041969813 -0.09194185 -0.07225904
000080 f4 4a d6 bc ac 04 2e bd bc 5c cf bb 79 1b 34 bd
       -0.026158787 -0.042484924 -0.0063281935 -0.043971512
000090 93 0a fe 3d 28 7e 88 3d a9 5b ca 3c 9a 87 9b bc
       0.124043606 0.066646874 0.02470191 -0.018985558
0000a0 21 58 24 3d c0 f0 0d 3e ea dc 56 bd 88 bd eb bc
       0.04012311 0.1386137 -0.052456774 -0.028776899
0000b0 0e e2 ce bc a8 9d 0e bc cd 08 43 3d d3 7b 73 bd
       -0.025254276 -0.00870458 0.047615815 -0.05944426
0000c0 04 e7 73 3c 88 5c 46 bc 17 da e3 bc 3a 53 01 3d
       0.014886621 -0.012107022 -0.027813954 0.03157351
0000d0 11 55 87 bd 5a 19 d8 bd 92 11 19 be 7b a2 81 bd
       -0.06608022 -0.105517104 -0.14948109 -0.06329819
0000e0 72 f1 5e bd f1 61 81 bc 67 f2 f3 bc 2e 8a 4d bd
       -0.05442948 -0.015793772 -0.029778672 -0.050180607
0000f0 8e ee 0e bc fc 58 85 3d 7b e5 bf 3d c6 e1 9b bd
       -0.008723868 0.06511113 0.09369942 -0.07611422
000100 ed 1a 90 bd 00 4e 59 bd eb f6 00 be 71 74 48 3d
       -0.07036386 -0.053052902 -0.12594192 0.048939172
000110 c7 1a 19 bd 6b 00 5a bc af be 63 3c da c8 4c 3d
       -0.037379052 -0.013305764 0.013900443 0.049996234
000120 40 b0 e0 bd 93 c6 a6 bc 05 e9 bd bc 14 d3 57 bd
       -0.10971117 -0.02035836 -0.023182401 -0.052691534
000130 39 a5 29 bd 04 4e 09 bb 0e 7f e9 bd 9b 7f 64 bc
       -0.041417334 -0.0020951042 -0.11401187 -0.013946439
000140 38 79 4b bd b4 eb 9e bd 5e c1 b5 bd 76 1d e1 3c
       -0.04967615 -0.077598006 -0.088747725 0.027479868
000150 a9 c4 72 bd b0 25 06 be be 86 75 bd 59 c6 17 3d
       -0.05926958 -0.13100314 -0.059942953 0.037054393
000160 81 10 68 3d 5f 62 a8 3b 17 ea 9f 3d ea 6d 8c 3c
       0.056656364 0.00513868 0.07808321 0.017142255
000170 a6 f5 19 ba 3c d6 80 bd 39 6c d9 bd 40 54 da 3b
       -0.0005873091 -0.06290862 -0.10616345 0.0066628754
000180 c4 31 f5 bd 83 cb 85 bd be 49 9c bd e3 39 d9 3d
       -0.11972383 -0.065329574 -0.07631253 0.10606744
000190 24 be ed 3c 66 b6 75 bc f0 12 e5 3b c4 09 72 3d
       0.02902133 -0.0149971 0.006990783 0.059091344
0001a0 03 20 9a 3d e1 2e 1c ba 33 dd 2c bc 4a 62 dd 3a
       0.07525637 -0.0005957913 -0.010550785 0.0016890254
0001b0 d4 7b 8f bd 36 f7 58 bd 46 32 26 3d 0d 63 a5 3d
       -0.0700604 -0.052970134 0.04057529 0.08075533
0001c0 25 1d 16 3d 47 a7 b7 3c b2 a0 c8 3d 4b ac 42 3d
       0.03664889 0.022418631 0.09796275 0.047527593
0001d0 92 ca 90 3d b3 9f 14 3c 90 28 c5 bc b3 0e 33 bc
       0.07069887 0.009071278 -0.024067193 -0.010928798
0001e0 12 10 76 bd 7a 05 fb bb f8 3b 29 bd 80 8e 20 bd
       -0.06007392 -0.007660565 -0.041316956 -0.0391984
0001f0 37 4f 2b bd 49 40 74 3c 2c 85 22 3e 40 16 1b 3e
       -0.041823592 0.014907905 0.15871114 0.15145206
000200 be f0 7a 3d a0 f5 81 3d ef fa 7f bc 4b ad d5 bd
       0.061264746 0.063456774 -0.015623792 -0.10433444
000210 9e 15 15 3d f7 8d da 3d 04 53 88 3d be ac 30 3d
       0.03639757 0.10671609 0.06656459 0.04313349
000220 4d a5 38 3d 08 11 80 3c c0 74 3f 3b be c9 87 bc
       0.045079518 0.015633121 0.0029213876 -0.01657569
000230 50 10 e1 bc c6 d4 9f 3d d6 ae 4e 3d a0 a2 7f 3d
       -0.027473599 0.07804255 0.050459705 0.06241095
000240 4a 51 c8 3d 6e a0 12 3e 49 17 b0 bc 81 e5 7e bc
       0.0978113 0.14319012 -0.021495478 -0.015557648
000250 d9 e2 ec ba 24 34 c5 ba be 95 8f bd 9c 3d c8 bd
       -0.0018072977 -0.0015045446 -0.07010983 -0.09777376
000260 8c 8b a5 bd 99 8e a2 bc 48 ce 21 3d 9c bd b1 3d
       -0.08083257 -0.019843386 0.039503366 0.08678743
000270 e6 19 9e 3d b6 a2 5f 3d ff e1 0f 3d 5b bb 38 3c
       0.077197835 0.054598533 0.035127636 0.011275138
000280 b4 13 ed 3d 86 7c 98 3b 42 ff 02 bd 4e fe 9e 3b
       0.11576024 0.004653516 -0.031981714 0.004852093
000290 2f 16 a5 bd d8 65 e5 3c 8f cd b7 bd 22 10 92 bd
       -0.08060872 0.028002664 -0.08974754 -0.07131983
0002a0 42 b0 bc bd 95 86 1a be f3 ea 81 bd b2 9b d9 3b
       -0.09213306 -0.15090401 -0.06343641 0.006640875
0002b0 32 97 b3 bc cf 3a 27 3c 18 cd 58 bd 9e 95 97 3b
       -0.021922681 0.010206892 -0.052929968 0.00462599
0002c0 d8 dc 80 bd 43 22 e9 3c 37 50 10 3e 72 9f ff 3c
       -0.062921226 0.02845872 0.140931 0.03120396
0002d0 9d c8 3c bd 60 68 bf bd 9d 6e 40 3d de 14 af bd
       -0.046089757 -0.0934608 0.04698049 -0.08548902
0002e0 1a 03 a4 bd f2 86 2b 3d 12 53 96 bd 92 51 45 be
       -0.08008404 0.04187674 -0.07340063 -0.19269398
0002f0 ff 84 b8 3d ab f5 ff bd b9 2b e2 bd ff 67 a0 bc
       0.09009742 -0.12498029 -0.11043496 -0.01958084
000300 6a 0b 9d bd b0 77 b8 bd a2 39 ca 3c bf 87 61 bd
       -0.07668193 -0.090072036 0.024685685 -0.0550611
000310 6c 87 e5 bd 55 98 45 3d bb 4b 3f bd cd c4 ab 3d
       -0.1120747 0.04824098 -0.04670308 0.08387146
000320 c6 12 32 3d 48 5c 99 bd 84 bc 17 3d e6 93 47 3d
       0.043474935 -0.074883044 0.037045017 0.04872503
000330 c7 2b 4c bd 76 c1 17 3d 76 0a aa 3d 45 24 3a be
       -0.049846437 0.037049733 0.083027765 -0.18177898
000340 e3 f4 87 bd 0c a3 cc bd 61 d3 0e be 3e ce 09 bd
       -0.06638505 -0.09992036 -0.13947822 -0.033643954
000350 e9 fe 96 3c 65 0b b8 bd 38 1f c8 bd 4e a4 19 bd
       0.018432098 -0.08986548 -0.097715795 -0.03751021
000360 d9 b8 ec bc eb 79 a8 3c ee 23 3c 3d f4 5d ee 3c
       -0.028896736 0.020565948 0.045932703 0.029097535
000370 a1 c0 d1 bc d8 81 20 bd 3f 6c a5 3c 2d 88 5e bd
       -0.025604548 -0.03918633 0.020193217 -0.054329086
000380 09 6d 0e 3d da 59 3d 3d 27 f6 7a 3d 2e 7b c9 3d
       0.034771953 0.046228267 0.061269905 0.09837948
000390 5f db 45 3a 67 5f 95 3d 0e 19 c6 3d ff 34 b4 3d
       0.00075476425 0.07293587 0.096727476 0.08799171
0003a0 44 5a f2 3b 7d 98 e1 bb 44 21 27 3d 2b 73 29 3c
       0.0073960144 -0.006884633 0.04080321 0.0103424
0003b0 07 0e 44 bd 7c eb af bd 3a be 18 bd cd 70 0e bd
       -0.04786494 -0.08589837 -0.03729079 -0.034775544
0003c0 23 fa eb bd 76 e4 20 bd db a6 d7 bd 20 bd 09 3e
       -0.11522319 -0.039280377 -0.10529872 0.13451052
0003d0 e7 60 09 3e bd fb d2 3d 61 60 c5 3c 49 48 47 3c
       0.13415872 0.103019215 0.024093809 0.01216323
0003e0 44 be 1f 3d f3 6d 01 3d f5 71 ff 3b bc 24 a6 3d
       0.03899981 0.031598996 0.007795567 0.08112475
0003f0 fb cf fb bd de ba 18 bd 1b 4c 33 3d ea 13 da bd
       -0.122955285 -0.037287585 0.04377375 -0.106483296

conv4.bias f4 [16]
000000 8a 22 ba 35 14 ea fa b6 b8 c4 d7 37 04 5a 74 b5
       1.3868132e-06 -7.477831e-06 2.5721602e-05 -9.1028073e-07
000010 17 6f 5b b6 d2 da db 36 ad 2c 79 37 9a e6 17 36
       -3.2698206e-06 6.5521826e-06 1.4851958e-05 2.2634981e-06
000020 22 47 23 36 80 18 c8 b2 12 21 a8 b7 21 38 37 b6
       2.4330297e-06 -2.3294206e-08 -2.004256e-05 -2.7301796e-06
000030 d4 5d 01 36 1d 66 96 b6 b0 81 c2 36 5e 7d fb 36
       1.9277113e-06 -4.482236e-06 5.796748e-06 7.4949776e-06

bn4.weight f4 [16]
000000 03 08 74 3f 82 38 81 3f cc 83 84 3f c4 7b 63 3f
       0.95324725 1.009537 1.0352721 0.88860726
000010 08 70 87 3f b2 e7 45 3f 1e 28 4e 3f c4 46 70 3f
       1.0581064 0.77306664 0.80529964 0.9385798
000020 84 7e 6c 3f 44 dc 71 3f 46 4b 71 3f cb 39 80 3f
       0.9238055 0.94476724 0.94255483 1.0017637
000030 0d 34 4d 3f 2d bb 64 3f 4f 0f 6c 3f 3e af 5c 3f
       0.8015755 0.8934811 0.9221086 0.862049

bn4.bias f4 [16]
000000 be 46 d2 be 33 8a 97 be 19 b7 a8 be 4a de e7 be
       -0.41069597 -0.29597625 -0.32952192 -0.4528678
000010 e5 7b ce bd 97 93 c3 be 22 db c4 be 0c d0 c8 bd
       -0.10082225 -0.3819854 -0.38448435 -0.09805307
000020 b3 e6 ec be 84 ed a3 be 0f 41 e5 be 8b c5 10 be
       -0.4626976 -0.32017148 -0.44776198 -0.14137857
000030 86 e6 8b be f8 0f 7a be ac 7f 42 be ba cd f5 be
       -0.27324313 -0.24420154 -0.18994015 -0.4800852

bn4.running_mean f4 [16]
000000 35 b5 c7 be 8c ae 5a bf 51 84 2a be 52 15 cb be
       -0.39005437 -0.8542259 -0.16652037 -0.39664704
000010 c7 d6 25 bf 5c 86 aa 3d 0b 3a e2 be ce ae 41 bf
       -0.6478085 0.08326408 -0.44184908 -0.75657356
000020 84 c9 d9 be a4 8a 52 bf 07 8f 07 bf 0e 57 95 3e
       -0.42536557 -0.822428 -0.5295262 0.2916798
000030 f5 95 fa bd 27 bf 1e be ec 62 5d 3e 3d a7 c0 3e
       -0.12235633 -0.15502606 0.21619767 0.37627593

bn4.running_var f4 [16]
000000 7f 3e 9d 3e b6 c2 ca 3e ca 25 b7 3e 62 5a 84 3e
       0.30711743 0.39601678 0.35771018 0.25850207
000010 3e ab 02 3f 8f 18 29 3e 70 af 54 3e de d0 f2 3e
       0.51042545 0.16513275 0.20770049 0.47424978
000020 c6 5d 90 3e f2 ef e5 3e 80 4b 50 3e 59 e0 0b 3f
       0.28196543 0.44909626 0.20341301 0.546392
000030 e5 9f 8d 3e 25 34 b1 3e 69 dd 9f 3e f1 58 90 3e
       0.27661052 0.34610096 0.3122361 0.28192857

conv5.weight f4 [32, 16, 3, 3]
000000 e0 c9 e4 3d 37 95 65 bc a4 fd 64 bc 3a af 9a 3d
       0.11171317 -0.014012626 -0.013976488 0.07552953
000010 03 c0 26 bd bc 90 af b9 4a 39 e5 3d d0 91 35 3d
       -0.04071046 -0.00033486437 0.11192568 0.04432851
000020 d0 75 da bc ce 96 32 bc 70 5d e5 bc be 26 ca 3c
       -0.026667506 -0.010900212 -0.027998656 0.024676677
000030 c0 c4 b4 3c 76 90 0b 3d 5d 58 34 3d 4a 52 17 be
       0.022066474 0.034073316 0.044029582 -0.14777485
000040 f9 ef 1e bd 8a b2 21 bd 1c 3e b4 3c 6a f9 5d bd
       -0.038803075 -0.03947691 0.022002272 -0.054192938
000050 82 35 f4 3d c4 dd 73 3c 0c 7b bc bd 06 fe f2 bc
       0.11924268 0.014884416 -0.09203157 -0.029662143
000060 9f b1 65 bb 2a 20 91 bd 0f 17 08 be c1 02 97 3d
       -0.0035048497 -0.07086213 -0.13290046 0.07373572
000070 96 bc 89 3d f9 4f 39 3c cc 36 8e 3d 1e 41 83 3d
       0.06725423 0.011310571 0.069440454 0.064089045
000080 d0 22 9b 3c 8b 15 69 3c b4 9d 0f 3c 55 69 bc 3c
       0.018937498 0.014226328 0.008765627 0.022999445
000090 e3 ac 38 3d a2 02 67 3c db c2 d2 3c 60 10 4e 3d
       0.045086753 0.014099749 0.02572768 0.050308585
0000a0 ee ea 98 3d f3 39 10 bd 53 21 c5 3c db 88 13 3d
       0.07466684 -0.035211515 0.024063742 0.036019187
0000b0 25 08 d9 bd 22 3d bb bc aa 90 b0 3c a2 1e 82 bc
       -0.105972566 -0.022856299 0.021553356 -0.015883747
0000c0 f0 bf cc bb c2 37 21 3d b3 41 14 bc 37 8c a6 bb
       -0.0062484667 0.039359815 -0.009048867 -0.005082633
0000d0 c3 05 d0 3c 42 1a 96 3d 44 24 1d 3d 50 5b b2 3c
       0.025393372 0.07329227 0.038364664 0.021772057
0000e0 83 47 a8 3c 56 a3 99 3c e6 cd d8 3c 7f 93 1e bd
       0.020541912 0.018754642 0.026465368 -0.038714882
0000f0 16 43 2f 3c 5d a5 ce bc 42 54 2a 3c c7 67 7f 3c
       0.010697147 -0.025225336 0.010396065 0.015588707
000100 ca 07 51 ba e6 b7 85 b9 4b b0 99 bd 79 a1 8c bd
       -0.0007973878 -0.00025504752 -0.07504328 -0.06866736
000110 b3 32 6e 3b 84 75 61 be e1 56 3b be 4a 61 f0 bd
       0.0036346137 -0.22017485 -0.1829486 -0.117373064
000120 2c 30 b1 bd 49 84 1b 3d 80 2a b2 bd 24 f4 21 be
       -0.08651766 0.037967954 -0.086995125 -0.15815789
000130 8d 2e 22 bd 75 c1 a4 bd 32 fe 3c be 76 81 5d bd
       -0.039595176 -0.080447115 -0.18456343 -0.05407854
000140 d1 b9 01 3d e5 c1 c1 3d c2 13 71 3d 3e ba b1 3d
       0.03167135 0.094608106 0.058856733 0.08678101
000150 99 ab ed 3c 65 93 8c 3d 67 7a 6c 3d e8 13 7c bd
       0.029012488 0.06864051 0.05773392 -0.06154242
000160 42 7b 17 3d b1 8e 93 bd 41 a2 bc bd 32 11 74 bd
       0.036982782 -0.072049506 -0.09210635 -0.05958671
000170 d6 6f 07 be 2b a6 01 bd d5 85 3c bd 29 00 0f be
       -0.13226256 -0.03165261 -0.04602607 -0.13964905
000180 0a dd 4c 3c 54 33 5a bb 63 ae 9e bc 49 94 ed 3c
       0.012503872 -0.0033294754 -0.019370263 0.029001372
000190 87 11 1c 3d 5d 73 b1 3a 53 45 43 3b 02 27 38 3c
       0.038102653 0.0013538409 0.002979596 0.011239769
0001a0 35 15 b2 3b f6 bd e7 bd e6 58 0c be 6f 91 bf bd
       0.005434657 -0.11315529 -0.13705787 -0.09353911
0001b0 73 0e d7 3a 11 bc 92 3d ac 4c ed 3c 05 f8 51 bc
       0.0016407504 0.07164777 0.028967224 -0.01281548
0001c0 8c 4c 93 3b a8 31 0c be bf 57 23 3b c2 ce 30 3d
       0.004495209 -0.13690817 0.0024924127 0.04316593
0001d0 30 ef 45 3d 14 86 73 3d 8d 3e 5a 3b 6a bd ba bb
       0.04832381 0.05945404 0.0033301443 -0.0056988494
0001e0 31 1d a6 3c 4b 49 94 3c ef 0e 0b 3d 4b 24 b2 3c
       0.020277591 0.018101355 0.03394979 0.021745821
0001f0 42 c8 d1 3c b3 89 69 3d 2d 0d 74 3d f5 a3 ae 3c
       0.025608186 0.057016086 0.059582878 0.021318415
000200 36 45 ac 3d 03 a1 c6 3d ec c5 91 3c 3f 76 2d bd
       0.084116384 0.09698679 0.017794572 -0.042349096
000210 c8 2a 1d bc 0d b4 89 bc a7 03 8f bd d3 1b 0c be
       -0.009592719 -0.016809488 -0.069831185 -0.13682489
000220 1d ca a3 bd f2 e4 4f bd c7 09 38 be 00 7b d8 bd
       -0.079975344 -0.05075545 -0.1797248 -0.105703354
000230 62 89 84 bd 2c 27 9c bd 91 bd 95 bc 2e ce a5 3c
       -0.06471516 -0.07624659 -0.018278869 0.020239916
000240 cc 9f 5e 3d fc 1c 80 3d a1 f4 bc 3c b4 7f 25 bd
       0.054351613 0.06255528 0.023065867 -0.04040499
000250 83 6a a9 3b d1 91 32 3c 1a fe 4a be 28 7e d4 bd
       0.005170168 0.010899023 -0.19823495 -0.10375625
000260 27 b6 fe bd 8a d5 c7 3c 4c 3b f6 bc 3b e1 2c 3c
       -0.124370866 0.024393816 -0.030057572 0.010551746
000270 ed 82 7b 3d 2b df bf 3b 4d 70 8f 3d 2f 90 64 3c
       0.061404157 0.005855461 0.070038415 0.013950392
000280 2a b2 16 bd 6f 26 53 3d cd a9 2a bd 7b 96 da 3c
       -0.036791004 0.051550325 -0.04166584 0.026683083
000290 f7 00 6a bb d4 fb 4e bd 04 af 2d bd 12 2d 5b be
       -0.0035706141 -0.05053313 -0.042403236 -0.21403912
0002a0 f3 60 7f bc 47 98 bd bc 31 46 5f be aa a4 08 bd
       -0.015587079 -0.0231439 -0.2180412 -0.03336016
0002b0 c7 a1 16 bd be 3d 9d bd a0 99 ba bd d5 a6 59 3d
       -0.036775377 -0.07677792 -0.09111333 0.05313762
0002c0 9a 50 ec 3c fb 54 6d bc 87 3a c4 bc 7c a2 4a bd
       0.028847028 -0.014485593 -0.02395369 -0.049471363
0002d0 1c 19 54 bd a1 c4 9e 3c 69 9b d2 bd 09 ab 94 bd
       -0.05178176 0.01938087 -0.102835484 -0.07259185
0002e0 fc 7b 19 bd 29 a7 00 bd ff 45 02 be 0b a9 77 bd
       -0.037471756 -0.031409416 -0.12722014 -0.060463946
0002f0 9b 5a 66 bd db 81 74 bd 8a a7 13 bd 75 13 53 bc
       -0.05623875 -0.059694152 -0.03604845 -0.012883057
000300 63 50 b3 3c d2 45 cd 3c 55 4b b8 ba 50 d2 90 3c
       0.021888917 0.025057707 -0.0014060537 0.01767841
000310 8f b7 ad 3c 80 e9 67 3d c7 fb e1 bd 88 ef 96 bd
       0.021205692 0.056619167 -0.11034351 -0.07369906
000320 ca 7c 05 bd ee a4 92 bd c9 ab 17 bc b4 9a 6a bd
       -0.03258971 -0.07160364 -0.009257265 -0.057276443
000330 fc 3c 55 bd 60 bf 23 3c 96 5e 30 3d 50 23 f0 3c
       -0.052060112 0.009994358 0.043058954 0.029313713
000340 13 29 05 bd 4a e9 51 3c ca 62 87 3d 5f 8d 3e 3d
       -0.032509875 0.012811968 0.066106394 0.04652154
000350 04 8a e3 3d 41 53 db 3c 5c 1f 55 bd a5 89 cc bd
       0.11110309 0.026773097 -0.05203186 -0.09987191
000360 52 cf 81 3c 27 90 2c 3d ee d2 8e 3c 15 6e 95 bd
       0.015845928 0.042129662 0.017434563 -0.07296387
000370 7e a3 f2 bc 74 3c 20 3d 63 d8 a4 3d fd 17 36 3d
       -0.029618975 0.039120153 0.08049085 0.04445647
000380 4e ef 02 3e 52 81 ad bd d3 92 a9 bd ba 40 1d bd
       0.127866 -0.084719315 -0.082799576 -0.038391806
000390 20 44 02 be 36 5a 0e bd 33 39 87 3d e8 13 a2 bd
       -0.127213 -0.034754 0.06602707 -0.07913953
0003a0 89 33 6a 3d 6d 63 0c 3d 9f 50 7a 3d 93 45 13 3d
       0.057178054 0.034274507 0.061112043 0.035955023
0003b0 11 09 a2 3c 0b c9 a6 3c 21 d6 38 3c 3e 09 2e 3d
       0.019779714 0.020359537 0.011281521 0.042489283
0003c0 f0 c7 35 bd 6a 04 e9 3c b5 88 8c 3d 47 d5 f7 bb
       -0.04438013 0.028444488 0.06862012 -0.0075632664
0003d0 8f ad b6 bc 07 c5 28 3d a1 d5 df bc e6 50 b6 bc
       -0.022299556 0.041203525 -0.027323546 -0.022255372
0003e0 98 91 dd bc e3 ac 0d be 42 ee 2e bd 0d 47 36 be
       -0.027046964 -0.13835482 -0.04270769 -0.17800541
0003f0 e8 c2 d3 bd ed 4a 9e bd 18 b0 4f be 46 8e 08 3b
       -0.1033991 -0.07729135 -0.20282018 0.0020836755

conv5.bias f4 [32]
000000 2c 71 99 36 75 ac 38 b7 4f 50 21 b6 e8 5d b7 35
       4.5729303e-06 -1.1007408e-05 -2.4037615e-06 1.3661893e-06
000010 42 8c 8a b2 ec 2e 8b 34 6c c3 78 34 2e 14 83 35
       -1.6129096e-08 2.5924908e-07 2.3167894e-07 9.766134e-07
000020 bb ce 56 b5 e4 7b a6 36 66 07 bd b6 39 61 4f 36
       -8.0022045e-07 4.9616083e-06 -5.6335e-06 3.0901995e-06
000030 60 b4 f4 35 37 ef 85 36 dd 95 87 b6 a5 3f b0 35
       1.8231913e-06 3.991557e-06 -4.04076e-06 1.3131545e-06
000040 cc fd 6b 36 e2 d1 0c 37 4e 25 75 b6 52 47 91 36
       3.5165458e-06 8.393517e-06 -3.652956e-06 4.3296395e-06
000050 8a 2d 71 36 3c c4 1b 36 b0 b4 cb 35 ac 8f 5a b6
       3.5938306e-06 2.3211023e-06 1.5177266e-06 -3.256816e-06
000060 b2 a8 31 b6 1e 93 4d b5 d7 50 cd b6 64 9d e6 b5
       -2.647325e-06 -7.6582535e-07 -6.118887e-06 -1.7182142e-06
000070 ef 7c d7 36 c4 9e c7 b7 70 70 87 b6 e2 a1 86 b7
       6.4220435e-06 -2.379658e-05 -4.036403e-06 -1.6049427e-05

bn5.weight f4 [32]
000000 5e 8c 84 3f a2 b1 7b 3f d3 b9 68 3f 6c 65 58 3f
       1.0355337 0.9831792 0.90908545 0.8452976
000010 5d 0b 6e 3f fb e9 63 3f c9 d6 69 3f 3e ee 81 3f
       0.9298609 0.890289 0.9134336 1.0150831
000020 c3 bc 73 3f 42 55 66 3f 37 fa 80 3f b7 cb 57 3f
       0.952099 0.89973843 1.007636 0.8429522
000030 f7 e4 87 3f 8c 95 6e 3f 5f af 55 3f b0 68 89 3f
       1.061675 0.9319694 0.8347072 1.0735073
000040 35 df 6b 3f e6 7f 6f 3f 86 96 6b 3f 70 2c 5d 3f
       0.9213746 0.9355453 0.92026556 0.8639593
000050 d6 4c 6b 3f 71 7d 68 3f 3a 02 71 3f cc ef 6b 3f
       0.9191412 0.9081641 0.9414402 0.92162776
000060 bf 54 53 3f b1 f3 81 3f f7 bc 7c 3f 2c 6a 84 3f
       0.8255119 1.0152494 0.9872584 1.0344901
000070 97 04 69 3f 73 02 8a 3f 84 db 5e 3f e2 2a 72 3f
       0.9102263 1.0781997 0.87053704 0.94596684

bn5.bias f4 [32]
000000 ed 74 a8 bd f7 a3 e4 bd 7c c0 4b 3c ab ed e9 bd
       -0.08225427 -0.11164086 0.012436029 -0.11422285
000010 10 2f a5 bd 95 b7 89 bd f5 13 41 be e0 c9 15 be
       -0.08065617 -0.067244686 -0.18855269 -0.1462779
000020 40 ac 3c bc 96 ce 34 bc 9a 2b 8d bd ca 54 86 bd
       -0.011515677 -0.011035582 -0.06893082 -0.06559141
000030 9b 84 0d be c9 92 69 be 20 37 51 be b5 f3 9f bd
       -0.13820116 -0.228099 -0.20431185 -0.07810155
000040 1e fa fe bd ca 29 6f be ca 38 38 bd 5f ce 06 bd
       -0.1245005 -0.23355785 -0.044976033 -0.032911655
000050 9b 25 ab 3d 4e e9 e4 bb e8 76 97 bd a4 e6 bb bb
       0.08356782 -0.00698582 -0.073957264 -0.0057342816
000060 27 40 2c be 96 fc 38 3d 47 95 e3 bd af 3d dc bb
       -0.16821347 0.04516276 -0.11112457 -0.0067212204
000070 ec 76 50 bd b1 ba 52 be 67 81 3f 3d ae 3b de bd
       -0.050894663 -0.2057903 0.046754267 -0.10851227

bn5.running_mean f4 [32]
000000 51 25 e1 be 44 df 64 bf 39 34 57 bf 83 0a e3 3d
       -0.43973783 -0.89403176 -0.8406406 0.11085989
000010 c7 73 11 bf d9 0b c4 bd a7 d1 a1 be de 15 bd bd
       -0.5681729 -0.09572572 -0.31605265 -0.092326865
000020 49 62 b3 be f2 cb ee be 4d 31 3a bf 5e 98 c7 3e
       -0.35035923 -0.46639973 -0.7273148 0.38983434
000030 32 ac 62 bf 49 db 0c 3e e5 59 ea be 88 2b 6e bf
       -0.88544 0.13755526 -0.4577171 -0.93035173
000040 75 26 cc bf e7 5e 8f be 05 49 3d bf f7 ac 89 3d
       -1.5949236 -0.28002092 -0.73939544 0.067224436
000050 df b3 77 3d 78 95 48 bf 23 ad 53 bf 88 a6 90 bf
       0.060474273 -0.7835307 -0.8268606 -1.1300821
000060 55 02 a5 3b 94 0a 37 bf 5e f7 65 bf 20 31 7f bf
       0.0050356784 -0.71500516 -0.8983058 -0.99684334
000070 3c 6f 3c bd aa ee 6e bf 6d 27 07 bf b1 3f ab be
       -0.04600452 -0.9333292 -0.52794534 -0.3344703

bn5.running_var f4 [32]
000000 fc 84 28 3f 98 85 48 3f e6 df 35 3f 30 6d 22 3f
       0.6582792 0.7832885 0.71044767 0.63447857
000010 74 f5 36 3f 63 1e ec 3e 1c 2f 52 3f 32 30 0d 3f
       0.7146828 0.46116933 0.82103133 0.55151665
000020 da 66 07 3f 69 b5 4a 3f e6 f9 3d 3f ce e0 1f 3f
       0.52891314 0.7918306 0.7420944 0.624524
000030 5e af 36 3f c8 96 14 3f da 27 e3 3e ed a4 58 3f
       0.7136134 0.58042574 0.44366342 0.84626657
000040 5a ab 31 3f a4 11 df 3e 6c ac 3b 3f 71 c3 5d 3f
       0.69402087 0.43568146 0.7330997 0.86626345
000050 0a 3f 32 3f de 19 3c 3f 5f 30 1e 3f 9d c2 41 3f
       0.6962744 0.7347697 0.6179256 0.7568758
000060 70 8f 03 3f 74 bb 53 3f f2 5f 81 3f e1 89 42 3f
       0.51390743 0.82707906 1.0107405 0.75991637
000070 14 d3 13 3f 29 d9 7a 3f 1a c6 fa 3e 32 8c 05 3f
       0.57743955 0.9798761 0.48979264 0.52167046

conv6.weight f4 [32, 32, 3, 3]
000000 e4 9a 1c bd a6 3b eb 3b 46 1a 83 bd 91 1e 62 bc
       -0.038233653 0.0071787415 -0.06401496 -0.013801233
000010 07 a0 81 3c 91 01 02 3d ce a6 66 bc 5d 77 ed ba
       0.015823377 0.031739775 -0.014077855 -0.0018117238
000020 dd b1 4d 3d 79 7f a6 3c 6f f8 82 3d 46 05 3f 3d
       0.05021845 0.020324456 0.06395041 0.04663589
000030 80 ac ea bc b1 cb cc 3c c4 9a a1 3c f4 bb 99 bc
       -0.028646708 0.024999471 0.019727118 -0.01876638
000040 23 9d c2 bc d9 f4 a6 b7 90 33 a8 3a e6 51 18 bd
       -0.02375657 -1.9902758e-05 0.001283275 -0.03718748
000050 3b 2d 81 bc 7f e0 44 3b 5d 4f 51 bd c9 9e 47 bd
       -0.015768638 0.0030041037 -0.051101077 -0.048735414
000060 57 9f bc 3c 2c 60 c8 bc 04 ad a9 bd b7 3e 70 3c
       0.023025198 -0.02445992 -0.08284953 0.01466339
000070 c3 64 35 3d d8 61 b6 3c 5a 94 9e bd 81 9c 6c bd
       0.044285547 0.022263452 -0.077431396 -0.05776644
000080 9b ea f3 bc fb 51 d7 bc 98 1d ac bc 88 4e 8a 3c
       -0.029774955 -0.026284209 -0.021010205 0.01688315
000090 0d e6 1d bd b0 28 b5 bc 3d 06 c8 3a cf ec 4c bc
       -0.03854947 -0.022114128 0.0015260648 -0.012507631
0000a0 3a 74 fb 3c 74 0b 96 bc 05 c6 ba bb 7a 4f f9 bc
       0.03069507 -0.018316008 -0.0056998753 -0.030433405
0000b0 c5 39 c0 bc 86 cb 07 bc 16 ab e7 bb 3c c7 31 bd
       -0.023465047 -0.00828827 -0.0070699556 -0.043402895
0000c0 36 0f 84 bd b1 9a b4 bc f5 a3 4f bd 37 b8 41 3c
       -0.06448214 -0.022046419 -0.05069347 0.011823705
0000d0 30 67 8e bc a3 cd a4 bb 19 db 87 bd 5b ed a7 bd
       -0.017383188 -0.0050293966 -0.066335864 -0.08199569
0000e0 bb af 96 bc 11 a1 77 3b dd 0f 8b 3d b1 a1 22 3d
       -0.018394342 0.0037785212 0.06790135 0.039704982
0000f0 12 9f a6 bd 14 59 55 bd 59 2e 34 bd ec 41 8b 3d
       -0.08135809 -0.052086905 -0.043989513 0.06799683
000100 82 19 f0 3c 24 c8 7c bb ef c6 d9 3b 4e d6 58 bd
       0.029309038 -0.0038571442 0.006646029 -0.052938752
000110 1e aa 86 bc ea fc 2d be 85 a1 e0 bd 5f 21 3e be
       -0.01643854 -0.1699101 -0.109683074 -0.18567418
000120 97 a3 30 bd e7 82 43 bb 2f 73 91 bc c4 cc a9 39
       -0.04312476 -0.0029832663 -0.01775512 0.00032386754
000130 c8 30 87 bc c5 e0 9b bc 35 5f 49 bc f4 74 47 bd
       -0.016502753 -0.019028077 -0.0122907655 -0.04869552
000140 69 27 7e bd 8c 00 16 3d 1b a7 54 3d 83 5d a9 3c
       -0.062049303 0.036621615 0.051917177 0.020674473
000150 64 f1 51 bc ff ed ee bc f1 3d 5c bd 5c 6c 37 3d
       -0.0128139 -0.02916622 -0.05377001 0.044781074
000160 7a e0 07 3d 73 3d 74 3b c9 25 75 3d d5 a0 a2 3d
       0.033173062 0.0037268072 0.059850488 0.079408325
000170 40 af 07 3c eb ad 9f 3c b0 57 ba 3d 97 3c 45 3d
       0.008281529 0.01949211 0.09098756 0.048153486
000180 1d 7f 71 3d 0f 40 18 3d a8 a5 00 bd e3 1c 6e bd
       0.058959115 0.037170466 -0.031407982 -0.058133017
000190 f0 19 0a bd 6d aa 5f bd 6e 58 72 bc 41 21 f6 bb
       -0.033716142 -0.05460589 -0.014791591 -0.0075112884
0001a0 63 fb 2b bd 9a de 3a 3d 48 e2 42 3c 8c ea f0 3b
       -0.041987788 0.045622446 0.01189477 0.007352179
0001b0 1d 1f 6b bc 48 f8 12 bd 6b f2 f6 bc 42 b3 9b 3d
       -0.01435068 -0.03588131 -0.03014489 0.0760255
0001c0 20 16 88 3d ec 05 ef 3d a4 db ef 3c c6 22 21 3c
       0.06644845 0.116710514 0.029279537 0.009834951
0001d0 6a d3 9b 3d 14 5f df bc f2 cf f7 bc 4f 0b e9 39
       0.076086834 -0.027267016 -0.030250523 0.0004444965
0001e0 69 99 f8 bc 09 51 c2 bb 96 32 ad bc 89 14 01 3d
       -0.03034659 -0.0059300703 -0.021142285 0.031513724
0001f0 15 3f 50 3c 9f 16 38 bd 17 e9 90 3d e8 a9 89 3d
       0.012710352 -0.04494345 0.07075708 0.0672186
000200 ed d0 1c 3d 80 ad 58 bb 9f 07 86 3c 6b 66 3a bd
       0.038285185 -0.0033062398 0.016361056 -0.04550783
000210 db c9 bb bd c0 4c d0 bc ba 5c f5 bc 83 16 94 3d
       -0.0916936 -0.025427222 -0.029951442 0.07230856
000220 1d 29 0b 3c 3a 57 5c bd fd 73 be bc 7f 42 6f 3c
       0.008493689 -0.053794123 -0.023248667 0.014603256
000230 2d 6a b9 bd a0 8c cc bd d2 80 35 3c 15 a8 a0 bd
       -0.090534545 -0.099877596 0.011078076 -0.07844559
000240 3e 4b 63 3d 9c d1 0f 3d a4 0f 26 3c 30 11 21 3d
       0.05549168 0.03511201 0.010135565 0.039323032
000250 1d aa 04 3b 26 bb de bc d5 fe af bc 0d 2c c3 3a
       0.0020242997 -0.027188849 -0.021483818 0.0014890447
000260 d6 8b 14 bd c2 e4 be bc 0c 09 0e 3d 9b dc d7 3c
       -0.03626617 -0.02330244 0.034676597 0.02635031
000270 2c 70 22 bd 72 f4 8d bd 31 68 89 bd 53 9b 01 be
       -0.039657757 -0.0693139 -0.06709326 -0.12656908
000280 1d cd b0 bd 7e 80 92 bd 4a 7b f2 bc 6b c8 32 bc
       -0.08632872 -0.07153414 -0.029599804 -0.010912041
000290 f4 e3 31 bd 87 8f f8 bc 26 1b 49 bd 4a 2a b9 bd
       -0.043430284 -0.030341877 -0.049098156 -0.09041269
0002a0 a9 0f a6 bd b8 99 0c be 0f a0 f4 bd 47 a5 52 3d
       -0.08108456 -0.13730514 -0.11944591 0.051427152
0002b0 bc 8b 4c bc 14 73 b2 3c 64 90 97 3c cf 3b ff 3b
       -0.012484487 0.02178339 0.018501468 0.007789112
0002c0 6b 37 97 3a 06 21 8e 3d b0 e4 c3 3c 39 b7 1b 3d
       0.0011536902 0.069398925 0.023912758 0.03801653
0002d0 40 ed 10 3c 5e 48 0f 3d 7e cd 72 3d 00 83 1f 3c
       0.008845627 0.034981124 0.059278004 0.009735823
0002e0 fa 8d 0e 3d e5 ee 27 bd d0 ed 87 bd 57 d0 60 39
       0.03480337 -0.040999312 -0.06637156 0.00021439917
0002f0 14 a8 71 bd 20 90 de 3d 70 ca 6b 3d 3a 17 6a 3d
       -0.058998182 0.108673334 0.057566106 0.057151057
000300 46 b7 9c 3c b4 8d b4 3c 02 9c 75 3d ec 7f 48 3d
       0.01913036 0.022040226 0.059963234 0.04895012
000310 44 6d e3 39 0f d1 d9 bc ce b4 98 3c 97 f7 0e 3d
       0.00043378223 -0.026588945 0.018640902 0.03490409
000320 67 50 b3 3c a9 c6 de bc 99 f6 01 bd 7c 92 54 bc
       0.021888925 -0.027194338 -0.031729314 -0.012974378
000330 ef ce 2d bc a6 ef 08 be 5b 99 0f be 00 36 ce 3c
       -0.010608419 -0.13372669 -0.14023344 0.025172234
000340 5e d4 8b 3d 7a c0 3f bb fd 57 da bc ed 5a 04 3d
       0.06827615 -0.0029259012 -0.026653284 0.032313276
000350 e4 00 94 3d 5e 19 ac bd 93 26 00 be 56 73 0f be
       0.072267324 -0.08403276 -0.12514715 -0.14008841
000360 9e 49 d5 3b 1e 01 32 3d 1d 95 4e 3d 32 3a 64 3b
       0.00650902 0.043458097 0.050435174 0.0034824726
000370 bd 96 3b 3c 1a 3c cc bc 45 cf 32 bc d2 d9 71 bc
       0.011449513 -0.024931002 -0.010913675 -0.014761405
000380 f6 fd a4 bd ec 3c aa 3c fd 67 08 bd a1 5b 4b bd
       -0.08056252 0.020781003 -0.033302296 -0.04964793
000390 89 44 ae 3d 4e fe be 3d 2a 9a c4 3d 6f 36 31 bd
       0.08509166 0.093258485 0.09599717 -0.043264803
0003a0 da b3 85 bd bf 26 b2 bc b9 b0 6a 3d e8 ce e0 3b
       -0.065284446 -0.021746991 0.057297442 0.0068606026
0003b0 0c 51 2e bd 1e e5 42 bd 6c c1 6f 3b f1 21 c3 bd
       -0.04255776 -0.047581784 0.0036583794 -0.09527958
0003c0 de c0 be bd 48 58 43 3c 0d 84 0a bc f3 d1 8a 3c
       -0.0931413 0.011922903 -0.008454335 0.016945815
0003d0 1e ad 80 3d a5 58 f5 3c d3 fc 17 be c8 0a 51 bc
       0.062830195 0.029949496 -0.14842539 -0.012758918
0003e0 98 c7 09 bd fe ab 96 bd 87 ef 28 bd 46 5e f4 bd
       -0.033637613 -0.07357024 -0.041244056 -0.11932044
0003f0 16 da cb bd 69 89 3c bd 0f e3 90 bd b0 61 d1 3b
       -0.09953706 -0.046029482 -0.07074558 0.006389819

conv6.bias f4 [32]
000000 71 6f 8e 36 24 20 5d 33 99 4c f8 b5 39 a2 67 b5
       4.2449033e-06 5.1484804e-08 -1.8499733e-06 -8.629027e-07
000010 68 c4 ce 36 59 93 94 37 5a 19 2c 36 6a 72 1b b7
       6.162143e-06 1.7711589e-05 2.5644754e-06 -9.265359e-06
000020 15 b0 9c 36 b0 fd 38 37 2e 2a 9a b6 d1 ed 6d 35
       4.669661e-06 1.1026321e-05 -4.594468e-06 8.863545e-07
000030 a2 cf 83 b6 6e 80 29 b6 65 68 54 b5 c4 37 2b b6
       -3.928276e-06 -2.5257718e-06 -7.912807e-07 -2.5513446e-06
000040 42 69 e5 35 66 02 46 36 fb 02 f6 b6 75 b8 b1 35
       1.7092464e-06 2.9505695e-06 -7.3317183e-06 1.3241212e-06
000050 d0 83 d0 b6 8e 29 51 b6 b0 15 ab b5 64 75 62 b5
       -6.214228e-06 -3.1167615e-06 -1.2746805e-06 -8.4362387e-07
000060 ad de 92 b6 ec 7d 6d b6 ea 56 b6 36 5f 36 c0 36
       -4.377062e-06 -3.5389048e-06 5.434141e-06 5.7283755e-06
000070 6c 61 0a 36 04 19 76 b5 c4 2c 5d b5 df a3 a0 b5
       2.062031e-06 -9.1678544e-07 -8.239406e-07 -1.1968622e-06

bn6.weight f4 [32]
000000 e6 13 59 3f f3 18 37 3f 77 7d 69 3f 66 ba 52 3f
       0.8479599 0.71522444 0.9120707 0.8231567
000010 7c fe 6c 3f d5 78 84 3f a5 07 67 3f 69 10 5b 3f
       0.9257581 1.0349375 0.9024604 0.85571915
000020 d8 be 27 3f 75 b9 80 3f 08 dc 69 3f 93 35 6c 3f
       0.6552558 1.0056597 0.91351366 0.9226925
000030 5c 89 40 3f ac 7e 81 3f 12 82 50 3f 78 fa 6f 3f
       0.75209594 1.0116782 0.8144847 0.9374156
000040 e5 93 1d 3f b5 91 33 3f 9c 79 60 3f a4 24 44 3f
       0.61553794 0.70144206 0.8768556 0.7661841
000050 12 99 60 3f 4d 18 2f 3f c7 22 37 3f f1 2d 61 3f
       0.87733567 0.68396455 0.7153744 0.87960726
000060 b5 dc 45 3f 3c 81 4b 3f 0c 9f 65 3f 31 f9 4d 3f
       0.772899 0.7949407 0.8969581 0.8045836
000070 22 01 81 3f 07 40 5a 3f 9e 48 59 3f a6 db 25 3f
       1.0078471 0.8525395 0.8487643 0.6478828
